learning/tour-of-beam/frontend/.dart_tool/chrome-device/Default/optimization_guide_prediction_model_downloads/47f09d2b-d2a5-4d0f-bf9a-8af50c7ea516/model.tflite (tflite, 410364 bytes, 166 tensors)

context_transformer_0/bottleneck_input/norm/add f4 [32]
000000 bc 35 00 3d 73 b5 c8 bb 74 d2 d6 3c 68 d8 c2 3d
       0.031301245 -0.006125146 0.026223399 0.095139325
000010 fb 40 64 bd 69 3b 35 3c 7d fe 69 bc 7e 8b a9 bb
       -0.055726033 0.011061528 -0.014281866 -0.0051740995
000020 0d 77 b9 3d 98 24 84 3c 96 9b ec bc 3a 7c d9 3c
       0.0905591 0.01613073 -0.028882783 0.026548494
000030 dc aa 5e 3b 6a 06 ad bb 40 fd 89 3c 6e 49 ce bd
       0.0033976352 -0.0052803056 0.016844392 -0.10072599
000040 80 3c fa bc d2 aa ce bd 23 8b a9 3b f3 51 28 3d
       -0.030546427 -0.10091175 0.005174057 0.041093778
000050 22 61 22 3d 6c 5e 3c bd e4 d1 a0 bc 98 b3 77 be
       0.039643414 -0.045988485 -0.019631334 -0.24189603
000060 24 4f 0f 3b be 61 b4 3d 50 3c 86 bc ba d5 9f bc
       0.002186724 0.08807705 -0.016386181 -0.019511092
000070 a5 2f 19 3b 7a 77 be 3c e1 f3 94 bc e2 2d ed bb
       0.0023374346 0.02325033 -0.018182697 -0.0072381357

context_transformer_1/bottleneck_input/norm/add f4 [32]
000000 63 2d 09 bd 66 8b 59 3d 7b 07 11 3e f6 35 16 be
       -0.03349055 0.053111456 0.1416301 -0.14669022
000010 ca a3 7e 3d 78 52 f9 3d 02 5a ce bd 53 b1 0a bd
       0.06216792 0.12173933 -0.100757614 -0.033860516
000020 b7 09 82 3d e5 3d 2f bd da 67 5a bd 96 6e 55 3c
       0.06349509 -0.042783637 -0.053321697 0.013026854
000030 9c f9 47 be 50 1d 39 3e 82 41 c5 bd c9 b7 18 be
       -0.19528812 0.18077588 -0.09631635 -0.14913858
000040 52 df c5 bd 4c 0f cc bd 28 0c c9 3c 0f 70 1e 3d
       -0.096617356 -0.09963855 0.02454193 0.038681086
000050 a8 81 88 be 67 68 8d bd 57 c9 a9 bb 47 4a 60 be
       -0.2666142 -0.06904679 -0.0051814723 -0.21903335
000060 cb e4 70 bc d4 3b 03 3e 27 2f bf 3d aa b8 0b bc
       -0.014702986 0.12815791 0.093351655 -0.008527914
000070 3a 95 7c 3d d6 1b a8 bd 42 b0 80 bd ba ec 07 3e
       0.06166575 -0.08208434 -0.062836185 0.13273898

mention_transformer_0/bottleneck_input/norm/add f4 [32]
000000 bc 06 8d be 86 5e 14 3d d4 a0 f2 3d 55 a1 3f bd
       -0.275442 0.036222957 0.11847082 -0.046784718
000010 1a 92 c6 bd 22 2b 41 3e 59 92 61 be 79 b9 53 3d
       -0.096958354 0.1886411 -0.22028483 0.051690552
000020 1b a3 52 3e bc 1e d2 3c 44 4e 54 3d 05 1a 5d be
       0.20570032 0.02564942 0.051832452 -0.21591957
000030 41 c0 6d bd 3c b0 5b 3c e4 79 d7 3b e8 c5 30 3e
       -0.058044676 0.013408717 0.00657581 0.17262995
000040 5a 27 16 3e 2c f4 41 3e 34 94 9d 3d be 11 4a 3d
       0.14663449 0.189408 0.07694283 0.049333327
000050 11 a7 f0 3c 42 13 a9 bd 78 11 48 bd 1a 43 07 be
       0.029376538 -0.08255626 -0.048844784 -0.13209191
000060 9e a3 7f be 52 7a 1b 3e 5e 0f 25 be da c7 a4 3e
       -0.24964759 0.1518338 -0.16119143 0.32183725
000070 44 76 1d 3e 59 99 03 3c 74 08 60 3e 0a 14 14 3e
       0.15377146 0.008032166 0.21878225 0.1446077

mention_transformer_1/bottleneck_input/norm/add f4 [32]
000000 a8 eb d8 bd ef 7e 68 3d e4 45 00 3d e5 6a f3 bc
       -0.10591823 0.05676168 0.031316653 -0.029714057
000010 c0 69 36 be ff 16 66 bd 08 56 ea 3d ef 72 27 3d
       -0.17813778 -0.056174275 0.114421904 0.040881094
000020 54 ba b3 be e4 6e 3f be c8 b4 e4 3c 30 6c 6a 3e
       -0.35103095 -0.18694645 0.027918234 0.22892833
000030 bb fe 23 be e9 fe 92 bd 7a 3c 04 3e 6a 3b f2 bd
       -0.1601514 -0.071775265 0.12913695 -0.118277386
000040 55 19 01 bf 34 80 55 3e 81 e8 34 be bc e8 67 3e
       -0.5042928 0.20849687 -0.17666818 0.22647375
000050 cf e1 3c 3e 8e 9f bb 3d 80 b2 da bd d8 d5 db 3c
       0.18445514 0.09161292 -0.106785774 0.026835367
000060 18 41 01 bd 30 bf 14 be c2 98 10 3d 34 e7 87 3e
       -0.03155622 -0.14526057 0.03530193 0.2654358
000070 b1 0c 14 be 18 04 8b 3e 62 e2 e2 bc ac 9b 46 3e
       -0.14457966 0.2715156 -0.027695838 0.19395322

context_transformer_0/attention/value/add;context_transformer_0/attention/value/einsum/Einsum;context_transformer_0/attention/value/add/ReadVariableOp/resource f4 [32]
000000 9c a8 38 3d 89 b7 7c 3d ac a8 41 3c a0 1b 39 bc
       0.045082673 0.06169847 0.01182 -0.01129809
000010 88 05 bf bb 67 1d c4 bc c5 f8 b0 bd 9c 76 5d 3d
       -0.005829517 -0.023939801 -0.08641199 0.054068193
000020 ea 2b a6 3c a9 c6 b8 bb 21 c7 76 3d 49 79 4f bc
       0.020284612 -0.0056389165 0.060248498 -0.012663194
000030 01 d6 7e bd 3a 7f 84 3b 78 4e 52 3d ce 9a d5 bc
       -0.06221581 0.004043487 0.051344365 -0.026074793
000040 26 eb 9d bd d4 31 70 bd a4 90 0c 3d 56 a9 57 bd
       -0.07710867 -0.05864127 0.034317628 -0.052651726
000050 ff bd 8e 3d 89 6e bd bc 51 f6 52 3d 09 c2 1f bd
       0.06969833 -0.023123996 0.051504437 -0.039003406
000060 34 9a 55 3c e9 98 08 3d ec dc 1a 3d 49 9f 79 3d
       0.013037253 0.03334895 0.037808344 0.06094292
000070 7f ab 71 bd 78 cd fa 3c 9d 4c fc bc e6 b3 26 3d
       -0.059001442 0.030615553 -0.03079825 0.04069891

context_transformer_0/bottleneck_input/norm/mul f4 [32, 32]
000000 c7 a6 e9 bd 31 59 d2 3d cf f0 0a 3e 2e f6 7a be
       -0.114087634 0.10270918 0.13568424 -0.24507973
000010 85 4d ea bd 73 50 d1 bd 18 2a b3 bd 1c 55 93 bd
       -0.11440567 -0.102204226 -0.08748263 -0.07193968
000020 86 72 a6 bc 8c f5 3b 3d 3a 17 b0 bd 37 56 34 bd
       -0.02031828 0.04588847 -0.0859818 -0.044027533
000030 ed 7d bd 3d 8c 0e 06 bd 67 c0 9f bc f8 ee ea bc
       0.09252534 -0.032728717 -0.019500924 -0.028678402
000040 3c c4 a0 bd 85 c9 c5 3d e7 ef 95 3c 08 3a 52 3d
       -0.07849929 0.096575774 0.01830287 0.051324874
000050 52 de b2 3d 42 51 8f 3d a7 32 da bd 4c 81 bd 3d
       0.087338105 0.069979206 -0.106541924 0.09253177
000060 ef 5f d2 bd 12 0a d8 3d 73 ce ea 3d ff 10 0f 3e
       -0.10272204 0.10548796 0.11465158 0.13971327
000070 23 38 40 bd 59 c4 89 bd df f7 cb 3d b3 d9 89 bc
       -0.046928536 -0.067269035 0.09959387 -0.01682744
000080 a2 41 7f be e2 e0 db bd 5a 41 62 3e 95 70 6d 3c
       -0.2492738 -0.10736252 0.22095242 0.014492174
000090 7c 2d 8c be 96 cb 62 be b1 3d 0a 3e 1c 66 35 be
       -0.27378452 -0.22147974 0.13500096 -0.17714733
0000a0 f6 19 a8 3d b4 5e b9 3c 01 e9 10 be 32 98 2d bd
       0.08208077 0.022628166 -0.14151384 -0.042381473
0000b0 fb 27 02 3e 31 81 b3 3d e0 09 a3 3e 45 d6 f6 3d
       0.12710564 0.08764876 0.31843472 0.120525874
0000c0 de 27 0d be 79 f9 2d be cf f1 f2 bd f0 08 32 bd
       -0.1378474 -0.16989698 -0.118625276 -0.043465555
0000d0 49 49 6b 3e 83 fb d2 3d 58 6e 2c be 65 7b 0b be
       0.22977175 0.10301878 -0.16838968 -0.1362129
0000e0 e3 f3 f8 bd 91 af 24 3c 0a 63 c9 3d 81 28 cd 3c
       -0.12155893 0.010051624 0.09833343 0.025043728
0000f0 46 bf c9 3e 5d d2 f2 3c c7 65 17 3d 0a f9 43 3e
       0.39403743 0.029641325 0.036962297 0.1913797
000100 e1 cb b0 3e f3 29 77 bd a8 9a 48 be e7 f4 a8 be
       0.34530547 -0.06034274 -0.19590247 -0.32999346
000110 e5 f3 44 bf 93 f4 6b 3e 5a b9 94 bd e9 46 d8 bd
       -0.76934654 0.23042516 -0.072619155 -0.105604
000120 44 70 fd 3d 9a 53 d6 bd 79 87 0d bd c4 4f 03 3e
       0.123749286 -0.104651645 -0.034553025 0.12823397
000130 12 54 2d 3e 65 c2 f0 39 05 dd a3 3e 47 60 58 3e
       0.16926602 0.00045921202 0.32004562 0.21130477
000140 48 75 92 bc 8e 0f 8d be fd 8e ac 3e b3 a6 e2 bc
       -0.01787819 -0.2755093 0.3370284 -0.027667379
000150 9b 25 58 be 83 06 cb bd 58 f4 b9 3e 03 e4 8b be
       -0.21108095 -0.099133514 0.36319232 -0.27322397
000160 da b3 86 3e 3e d9 d8 3d c3 e4 cc be fb 35 50 3d
       0.2630909 0.10588311 -0.4001828 0.05083273
000170 98 d9 24 3f a8 a6 94 3e 9d e0 2f 3d c8 16 84 bd
       0.6439452 0.290334 0.042938817 -0.06449658
000180 a9 82 aa be 6c 21 b3 3e 64 82 59 be 8f 96 75 3d
       -0.3330281 0.34986436 -0.21241146 0.059958037
000190 2f d9 66 3e 8b 4b 0f be f7 9f 14 be 01 05 9c be
       0.22543786 -0.13993661 -0.14514147 -0.30472568
0001a0 f3 43 3d be 96 36 9d 3e fd fd 05 bf f9 df 17 3d
       -0.18482952 0.30705708 -0.5234068 0.03707883
0001b0 7b 61 a8 3d 3c 78 7e be 30 8c 89 be e3 7f 26 be
       0.08221718 -0.24850553 -0.26864767 -0.16259722
0001c0 8f 4a 58 3d 05 96 90 be 48 a1 8a 3e 11 2e 75 be
       0.05280548 -0.28239456 0.27076173 -0.23943354
0001d0 b3 a4 80 3d 5b 7f d1 be f5 1f 86 bd 57 5d ee bd
       0.06281414 -0.40917477 -0.06549064 -0.11638897
0001e0 fe 41 a2 3d 3d 55 73 3e 5b ec 4f bd 7f d7 9e be
       0.07922743 0.23762985 -0.050762516 -0.31023785
0001f0 6d 15 85 3c 4c c7 b1 be 97 53 86 bd 1a a4 a0 bb
       0.016245568 -0.34722364 -0.06558912 -0.004902375
000200 0b ea ce bc 35 47 25 3d c8 bb 11 3d fe ff 6a bd
       -0.025258085 0.04035111 0.035579473 -0.05737304
000210 c9 2f 1d bf d9 da 0f be a5 d4 ac 3e 1a af b0 3e
       -0.6140104 -0.14048328 0.33755985 0.34508592
000220 65 92 a2 bd 09 f4 c6 3e d4 4d ba be 0a 05 46 3e
       -0.07938079 0.3885806 -0.36387503 0.1933786
000230 e6 ce c1 3e 3d 3f da bd ee 5f 97 3e 53 c3 dc be
       0.37853163 -0.10656593 0.29565376 -0.4311777
000240 21 5a 66 3e 89 3c c7 3e 82 65 82 be 29 29 a0 3e
       0.22495319 0.38913372 -0.2546807 0.31281403
000250 e0 4e d7 3e 2d 1b e3 be 92 ad 33 3d 89 35 5e be
       0.42052364 -0.4435667 0.0438667 -0.2170011
000260 13 89 4d 3d e1 46 94 bd 2a 72 0f be ca 5f 0d be
       0.050179552 -0.072400816 -0.14008394 -0.13806072
000270 c2 ee d8 be 92 b3 07 be e0 6c 87 3e 97 be ce 3d
       -0.42369658 -0.13252094 0.26450253 0.10094946
000280 5e 36 54 3e 2d fa 67 3c de cb 60 bd 63 fd 67 3d
       0.20723864 0.014158768 -0.054881923 0.056638133
000290 02 7e d1 38 e9 98 ca 3c 7c 47 4b bc 5a b9 39 3d
       9.9893674e-05 0.024731116 -0.01240718 0.04534278
0002a0 c2 60 73 bd 79 a4 4b 3e 4c 82 38 3d 48 f3 2d 3e
       -0.059418447 0.1988696 0.045046136 0.16987336
0002b0 cd 46 7c 3d 04 c4 bb bd 85 af 4c 3c a2 2b 17 be
       0.06159096 -0.091682464 0.012493019 -0.14762738
0002c0 a2 1e ec bb 08 39 2c bd b8 d0 33 bd 69 3e bd bd
       -0.0072058 -0.042046577 -0.04390022 -0.092404194
0002d0 08 4b 7a bd 32 90 e6 bd e5 d8 44 3d 2e ad da 3c
       -0.06110671 -0.11257972 0.04805841 0.026693907
0002e0 93 5d 92 be ab b2 ae 3e 74 55 17 3d 87 cf 5e 3c
       -0.28587016 0.34120688 0.03694673 0.013599283
0002f0 e2 ff 06 bd 70 40 55 be 0a 1e 09 bb 63 05 c4 bd
       -0.032958873 -0.20825362 -0.0020922446 -0.0957134
000300 56 8f 75 bc 9c 37 19 bc ed 33 9f 3e d7 c7 fb 3e
       -0.014987787 -0.009351637 0.31094304 0.49175903
000310 a3 5c 2a be 41 10 d7 3d c8 53 e7 3d a1 71 04 3f
       -0.166369 0.10501147 0.11295277 0.51735884
000320 a5 68 7d 3e 50 9c bc be a7 d9 57 be 94 c6 a4 bd
       0.2474695 -0.36838007 -0.21079122 -0.08045688
000330 de 05 f0 bd cf 6c c3 3d 79 c0 c6 bd 89 63 45 3c
       -0.11719869 0.09542238 -0.0970468 0.012047657
000340 14 57 97 3d 95 06 18 bc 6c 4d 96 bd d8 97 4d 3e
       0.07389656 -0.009278913 -0.07338986 0.20077455
000350 7a b2 01 bf b1 b9 12 3d c8 2e b2 3d 84 ff ec bd
       -0.5066296 0.03582162 0.08700329 -0.11572173
000360 e4 a1 90 bd 8e 38 34 bd 1d 10 9a 3d b9 26 42 bd
       -0.07062128 -0.043999247 0.075226046 -0.04740021
000370 46 43 86 3d 52 27 9b 3d c5 b6 49 3e b2 84 89 3e
       0.065558 0.07575859 0.19698627 0.2685905
000380 0b ad d5 bd f5 da fc bd b9 58 5b be b0 5b 8f bd
       -0.10433396 -0.1234645 -0.21420564 -0.0699991
000390 a2 9f 44 3d 19 73 94 3c 23 cb 45 3e 23 7e af bc
       0.0480038 0.01812129 0.19315772 -0.021422451
0003a0 6c 59 f2 3d ca 89 3d be 2d 28 81 3e 78 b4 0f be
       0.11833462 -0.18509594 0.25225964 -0.14033687
0003b0 a2 e4 9a bc b4 47 2f 3e 8a 9d 61 3e d4 ed cf bd
       -0.018907849 0.17117196 0.22032753 -0.10152784
0003c0 86 81 a9 3d 4d 36 6f 3c 23 d5 5e be 63 06 20 bd
       0.08276658 0.014600349 -0.21760993 -0.03906859
0003d0 69 99 eb 3e 66 c9 39 3e 33 88 88 be 9e 92 96 3a
       0.4601548 0.18143234 -0.26666412 0.0011487787
0003e0 44 ea 27 3f 1d 08 4a be aa 05 8c bd 52 18 27 bd
       0.65591836 -0.19729657 -0.06837018 -0.040794678
0003f0 52 7a ad 3d 19 70 3f 3e 4e 16 20 be fa 6c 97 bd
       0.084705964 0.18695106 -0.15633509 -0.073938325

context_transformer_0/kq_shared_bottleneck/norm/mul;context_transformer_0/kq_shared_bottleneck/norm/add;context_transformer_0/attention/key/einsum/Einsum;context_transformer_0/attention/key/add;context_transformer_0/attention/value/einsum/Einsum;context_transformer_0/attention/key/add/ReadVariableOp/resource f4 [32]
000000 87 ac 0c 3d d9 04 97 3c 1b 7d 53 3c 51 31 84 bd
       0.034344222 0.018434929 0.012908245 -0.06454719
000010 03 ea 0f 3d 0a 20 5f bd 77 72 a1 bd 89 74 b1 bb
       0.03513528 -0.054473914 -0.078831606 -0.0054155034
000020 7d 13 ff bc 88 37 45 be 48 b7 47 3d f4 0e 53 bc
       -0.031137222 -0.19259465 0.048758775 -0.012881983
000030 b2 f5 60 bd 61 fc 97 bd 26 f4 91 bd 43 2b c6 bc
       -0.054921813 -0.07421184 -0.07126646 -0.02419055
000040 c1 27 64 3e d3 ee a7 be 00 3a 7c 3e 62 0d 00 3e
       0.2228079 -0.32799396 0.246315 0.12505105
000050 63 dc 7f be e9 c5 84 3e a4 7a 9a be 7b 6a 73 3e
       -0.24986415 0.25932243 -0.30171692 0.23771088
000060 21 a2 d7 3e e6 20 30 be 55 cb 46 3d 3a 05 73 3d
       0.42115882 -0.1720005 0.048533756 0.059331156
000070 54 36 75 3e 79 38 05 bd 0c 48 48 3d 04 bc 95 3d
       0.23946506 -0.03252456 0.048896834 0.07311252

context_transformer_0/kq_shared_bottleneck/norm/mul;context_transformer_0/kq_shared_bottleneck/norm/add;context_transformer_0/attention/key/einsum/Einsum;context_transformer_0/attention/key/add;context_transformer_0/attention/value/einsum/Einsum;context_transformer_0/attention/key/add/ReadVariableOp/resource1 f4 [32, 32]
000000 63 38 17 be 4e d6 91 3d 6e f6 2f 3d 37 b5 01 be
       -0.14767604 0.071209535 0.042959623 -0.12666784
000010 ae 50 ab bd a7 0c 1e 3e 9c 2b 38 3d a0 4d 84 bd
       -0.08364998 0.15434514 0.044963464 -0.06460118
000020 df d0 e0 3d 59 98 34 3d 8f d9 0a 3e 48 6b 2f 3d
       0.10977339 0.044090603 0.13559555 0.04282692
000030 bf db 0e 3d 34 69 e1 3e c0 a3 35 3e 11 c4 6d 3d
       0.034877535 0.44025576 0.17738247 0.05804831
000040 00 98 92 3e e2 17 19 be cd 90 14 be 7c bd c9 3d
       0.28631592 -0.14950517 -0.14508362 0.098505944
000050 5a a9 2c 3d 85 57 26 bc 2a 5d 8d 3e 91 c5 d4 3c
       0.042153694 -0.010152702 0.2761014 0.025973113
000060 ae 04 41 be 2e e1 48 3e d1 54 01 bd ef e9 cc bd
       -0.18849441 0.19617149 -0.031575028 -0.10005557
000070 c2 70 07 3e c1 08 52 3d 15 31 50 3d 16 3d 8c 3d
       0.13226607 0.05127788 0.05082806 0.06847589
000080 4a e6 2b 3c ad 99 1b be 75 60 1e bd dc 87 37 3e
       0.010491917 -0.15195341 -0.038666207 0.1792292
000090 04 db 2d 3e 94 c2 4e be 6f 04 db bd a7 9f f4 3c
       0.16978079 -0.20191413 -0.10694205 0.029861284
0000a0 4c 39 da bd 7d b4 fb bd 2c be 75 be a1 99 45 bd
       -0.1065546 -0.12290285 -0.23998326 -0.048242215
0000b0 9e f5 66 bd 67 0f a9 be 33 01 02 be ff e4 07 be
       -0.056386583 -0.33019564 -0.1269577 -0.13270949
0000c0 46 7a 8d be fd 8c 1f 3e 78 62 4d 3e c5 d2 e2 bd
       -0.2763235 0.15581127 0.20057094 -0.11075357
0000d0 e9 d6 8a bd 43 67 0a bd 58 73 8b be 76 dc 39 3d
       -0.06779272 -0.033789884 -0.27236438 0.045376264
0000e0 73 fa a6 3e 1e 5d 2a be 78 85 c0 bd 75 b6 09 3e
       0.32612953 -0.16637084 -0.09400457 0.13448508
0000f0 37 36 4e be 3d af 91 bd 59 cd 35 bd ea d7 1f be
       -0.20137869 -0.07113502 -0.044385288 -0.15609708
000100 c4 7e 60 3d b7 46 1d be 6a 37 73 3d 03 7d 18 3e
       0.054808393 -0.15359007 0.05937902 0.14891438
000110 c7 1c d8 3d ff 97 3c be 0b cd f4 bd 71 02 be 3d
       0.10552364 -0.18417357 -0.11953171 0.092778094
000120 4f 8a 93 bd 8c d0 12 bd 40 3c 28 be 8e 91 40 bd
       -0.07204115 -0.035843417 -0.16429234 -0.04701381
000130 aa f0 92 bd 13 09 b4 be b8 b6 4f be dc 03 a2 bd
       -0.07174809 -0.35163173 -0.20284545 -0.07910892
000140 cd 3d 77 be b7 91 35 3e d4 ba 17 3e 0e 94 c9 bd
       -0.24144669 0.17731367 0.14817363 -0.09842692
000150 d7 3f dd bd 75 dc 59 3d 64 17 86 be 99 8e 96 bd
       -0.10803192 0.05318876 -0.2618972 -0.07351417
000160 1e 0c a0 3e 1f 18 82 be b5 7f 80 3c 18 72 1a 3e
       0.31259245 -0.25409028 0.015685895 0.15082586
000170 f1 4e 00 be 7e ea a4 bd eb 98 31 bd d5 a0 fe bd
       -0.12530114 -0.08052538 -0.043358725 -0.1243302
000180 30 6c cc 39 cd 56 1a 3e 90 e8 d3 bd f2 ad 2e be
       0.00038990518 0.15072174 -0.10347092 -0.17058542
000190 fb 8c 07 be ce da 3c 3e f6 a8 51 3e 53 a6 95 bd
       -0.13237374 0.18442842 0.2047461 -0.073071145
0001a0 7e 1f f3 3d a9 9e ed 3c da 24 02 3e 72 3a cc 3b
       0.11871241 0.02900632 0.1270937 0.006232553
0001b0 69 d2 7c 3d 84 c9 84 3e b8 f1 4d 3e 24 c1 cf 3d
       0.0617241 0.25934994 0.2011174 0.101442605
0001c0 dc 4b 32 3e 8b e9 4a be d4 59 4a be 55 b8 9b 3d
       0.1741175 -0.19815652 -0.19760829 0.07603518
0001d0 83 be 2f 3e d9 9d fe bc 0f 3c 8e 3e 9b 82 38 3e
       0.17162518 -0.031081127 0.27780196 0.18018572
0001e0 9c 8f ae be 46 fd 98 3e ff c8 94 3c f1 d7 0b be
       -0.3409394 0.29880732 0.018162249 -0.13656594
0001f0 84 d9 f5 3d 71 69 aa 3d 70 9e b8 3d 91 b6 30 3e
       0.120043784 0.083208926 0.090145946 0.17257144
000200 a7 be 15 3d d0 74 e3 bd f9 15 d4 3c af 0f 22 3e
       0.036558773 -0.111062646 0.025889384 0.15826295
000210 c7 c4 df 3d 56 8f 2f be 4f 19 eb bd f6 c6 1a 3d
       0.10926204 -0.17144522 -0.114794366 0.0377874
000220 8e 8e 97 bd 42 6b 0e bd b3 88 0b be 68 d8 81 3c
       -0.07400237 -0.034770258 -0.13626365 0.01585026
000230 94 1a 79 bc 92 fc a3 be 0b 40 35 be 81 57 7d bd
       -0.015204091 -0.32028633 -0.17700212 -0.06185103
000240 15 a9 79 be ce 78 1d 3e 7b d4 33 3e 42 15 35 bd
       -0.24380906 0.15378115 0.17561524 -0.044209726
000250 63 5b 07 be 75 25 d4 3c cc 04 84 be d6 9b 3d bd
       -0.13218455 0.025896767 -0.2578491 -0.046291195
000260 e7 27 8a 3e e3 8f 53 be 87 e5 20 bd b8 6f 13 3e
       0.26983568 -0.20660357 -0.039281394 0.14398086
000270 36 1e 46 be a6 c3 30 bd 7f 2d f6 bc a9 7c e7 bd
       -0.19347462 -0.043155335 -0.030050991 -0.11303074
000280 8d 94 2e bd 4a 4e fb 3d 38 56 d4 bd 56 e0 13 be
       -0.042622138 0.12270792 -0.103680074 -0.14441046
000290 2a 89 b9 bd 6d 93 eb 3d db 8f 2c 3e db 87 94 bd
       -0.09059365 0.115027286 0.16851752 -0.07252475
0002a0 45 9a 7b 3d 50 6e e1 bc ae 14 9a 3d 6a 00 52 3b
       0.06142642 -0.027518421 0.075234756 0.0032043704
0002b0 5f 23 92 3c 9c 5e 89 3e be f5 68 3e 54 15 25 3d
       0.017839132 0.26829994 0.22749993 0.040303543
0002c0 44 2b 40 3e 14 42 24 be d2 d9 56 be db 0d 5d 3d
       0.18766505 -0.16040832 -0.2098153 0.05396829
0002d0 a6 9d ed 3d d8 d5 82 bd bb a4 8d 3e 19 5d 04 3e
       0.11602335 -0.06388444 0.27664742 0.12926139
0002e0 04 ff 8f be ed ba 94 3e 06 02 29 bd a2 87 0e be
       -0.2812425 0.29048863 -0.041261695 -0.13918927
0002f0 24 fa 94 3d ce c6 32 3d 08 2e 85 3d eb 47 e0 3d
       0.07274273 0.043646626 0.065029204 0.10951217
000300 e7 ac 04 bb 9b 0d 06 3e 5e 92 8b bd b0 0f 2c be
       -0.002024466 0.13091128 -0.06815027 -0.1680286
000310 d3 b6 ea bd d3 8e 25 3e 3b b8 2f 3e 55 84 e5 ba
       -0.11460652 0.16167764 0.17160122 -0.0017510751
000320 1e 13 ab 3d 45 b4 a4 3d 06 16 2a 3e fe 97 e2 3c
       0.08353256 0.08042196 0.16609964 0.027660366
000330 be 8e 25 3d 33 ca 8a 3e 25 93 4e 3e 6c 3a a5 3d
       0.040419333 0.2710739 0.20173319 0.08067784
000340 55 dc 51 3e dd c1 31 be 71 a1 60 be e9 6f 5a 3d
       0.20494206 -0.17359109 -0.21936585 0.053329382
000350 c8 1e e7 3d 6e ba 1b 3c 5d b4 8f 3e 24 ae 65 3d
       0.11285168 0.0095048975 0.28067294 0.056074277
000360 b6 4a a0 be 07 e7 8d 3e 3b bd ac 3d 75 b3 00 be
       -0.31307 0.27715322 0.0843453 -0.12568457
000370 21 8e 2b 3e ab ff 86 3d 7e 40 87 3d 1a 02 13 3e
       0.16753437 0.065917335 0.06604098 0.1435627
000380 f8 66 32 bd 70 47 2a 3e 99 1b 05 bd 78 1c 47 be
       -0.04355523 0.16628814 -0.032497022 -0.19444454
000390 ac 4d 04 be ab b0 5b 3e 4b a8 f9 3d f3 4f cd bd
       -0.12920254 0.21454112 0.121903025 -0.10025015
0003a0 65 ee be 3d 91 a8 94 3d a9 e2 49 3e b6 93 c4 3d
       0.09322814 0.07258714 0.1971537 0.09598486
0003b0 8d d1 af 3d 2b 36 a5 3e d2 9a 4c 3e 3d 51 0c 3e
       0.085848905 0.3226789 0.19980934 0.13702865
0003c0 01 f6 8c 3e 84 5f 48 be cc 22 50 be 10 54 cd 3d
       0.27531436 -0.19567686 -0.20325774 0.10025799
0003d0 11 19 b5 3d 33 cd 8d bc 08 95 6e 3e 06 01 a0 3d
       0.08842672 -0.01730976 0.23299038 0.07812695
0003e0 c3 e0 b1 be 03 de 7f 3e 6a 28 01 3d 24 64 1b be
       -0.34741792 0.24987034 0.031532682 -0.1517492
0003f0 3e 76 1f 3e 45 46 87 3d d7 11 c6 3d 6e 50 ef 3d
       0.1557245 0.066052 0.096713714 0.116852626

context_transformer_0/kq_shared_bottleneck/norm/mul;context_transformer_0/kq_shared_bottleneck/norm/add;context_transformer_0/attention/query/einsum/Einsum;context_transformer_0/attention/query/add;context_transformer_0/attention/value/einsum/Einsum;context_transformer_0/attention/query/add/ReadVariableOp/resource;context_transformer_0/attention/Mul;context_transformer_0/attention/Mul/y f4 [32]
000000 0b 9a 0e be 03 c6 27 3e cb 03 3d 3e 61 dd 52 be
       -0.1392595 0.16384129 0.18458478 -0.20592262
000010 cf 28 27 3e e6 ca 3d be 05 28 3b be e8 e0 4c be
       0.16324161 -0.18534431 -0.18276985 -0.2000767
000020 39 a3 20 3e 10 f5 aa bc b1 5c 73 be 6a af 45 3e
       0.15687265 -0.020868808 -0.23765828 0.19305196
000030 40 50 7c 3e 30 e6 83 3e f6 47 68 3e 5a 7f 27 3e
       0.24639988 0.25761557 0.22683701 0.16357175
000040 66 62 3e 3e 08 0f 15 be e8 78 6c 3e 4d 07 72 3d
       0.18592224 -0.14556515 0.23092997 0.059088994
000050 c7 73 16 be 51 e8 40 3e 4a 71 12 be ff 88 41 3e
       -0.14692603 0.18838622 -0.14301029 0.18899916
000060 88 d7 27 be 51 eb ea bd 85 24 d6 bd 3c e2 df 3d
       -0.16390812 -0.11470664 -0.10456184 0.10931823
000070 55 e8 91 bd 47 53 25 be e7 9e aa bc dc 51 b8 3d
       -0.07124392 -0.16145049 -0.020827724 0.089999884

context_transformer_0/kq_shared_bottleneck/norm/mul;context_transformer_0/kq_shared_bottleneck/norm/add;context_transformer_0/attention/query/einsum/Einsum;context_transformer_0/attention/query/add;context_transformer_0/attention/value/einsum/Einsum;context_transformer_0/attention/query/add/ReadVariableOp/resource;context_transformer_0/attention/Mul;context_transformer_0/attention/Mul/y1 f4 [32, 32]
000000 fc e5 92 3d 25 5a 6e 3b f6 72 c7 3c f1 dc 8c 3b
       0.07172772 0.0036369648 0.02434681 0.004298799
000010 49 f5 29 bc 8e 54 3f bd 36 cb 4a bb 6a 16 fb 3d
       -0.010373422 -0.046711497 -0.0030943877 0.122601345
000020 06 09 cd bc 16 04 81 3c d7 50 0d bd 4d 81 91 bc
       -0.025028717 0.015749019 -0.034500923 -0.01776185
000030 b7 2c 5e bd 5c 8c 94 bb 0e 74 7a bc 68 ab bf bc
       -0.054241862 -0.0045333337 -0.015286459 -0.023397163
000040 42 b9 96 bc a4 ec f6 3b 94 e3 fe 3a a6 5b a4 bc
       -0.018398885 0.007535534 0.0019446486 -0.020063233
000050 9d af 89 bc 89 63 9d 3d a9 f5 08 3d 4e 4d 4c bd
       -0.016807372 0.076850004 0.033437405 -0.04987841
000060 95 c0 c9 bb 27 79 21 bb f8 45 60 3b 11 48 2c 3d
       -0.006156991 -0.0024638863 0.0034221392 0.042060915
000070 76 30 44 bd ac 98 a3 bc 7d 09 62 bd 64 54 cd 3c
       -0.04789778 -0.01997026 -0.05518483 0.025064655
000080 b1 a5 24 bb 33 15 87 bc e7 c4 4f bc b5 b0 b3 bc
       -0.0025123174 -0.0164896 -0.0126812225 -0.021934846
000090 e5 d5 0c 3d 84 24 86 3d 3f 70 ea 3b 3d 70 a6 bd
       0.034383673 0.065499336 0.007154494 -0.081268765
0000a0 18 fc bc 3c 7e 9b 0c 3d 77 ba ae 3d 47 eb ba bc
       0.023069426 0.034327976 0.08531659 -0.022817267
0000b0 53 73 73 3d 95 55 1d 3d 30 eb 13 3b b0 e0 24 3d
       0.059436154 0.038411696 0.0022570603 0.04025334
0000c0 ae ba b5 3c 9b 48 75 3c 6a f1 ce 3c dd e7 4c 3c
       0.022183742 0.014970924 0.0252616 0.012506452
0000d0 07 c6 1e 3c 96 eb 90 bd fa a3 78 bd 4e 76 e5 3c
       0.009690768 -0.070761845 -0.060703255 0.028010514
0000e0 e1 19 f0 bb 8e 6d c1 bc 97 e9 51 3d d0 9a 84 bd
       -0.0073273038 -0.02361181 0.05124816 -0.06474841
0000f0 5e b7 bb 3d ac ce e2 3c 99 53 9b 3d 44 23 3f 3c
       0.09165834 0.02768644 0.07584304 0.011666123
000100 12 2d a7 bd 67 43 49 bc da 49 ad 3c 45 2c 6a bc
       -0.08162893 -0.012284136 0.02115338 -0.014292781
000110 94 ac c0 3c 2f cd 2e 3d 0a ef 53 bc 11 04 b3 bd
       0.023519792 0.042676147 -0.012935409 -0.0874101
000120 ea 77 0d 3d 29 b3 37 bb f1 63 62 3d fd ee 16 3d
       0.034538187 -0.0028030372 0.055271093 0.03684901
000130 32 50 8f 3d 4a c8 80 3c c8 e7 dc bb aa 49 19 3d
       0.06997718 0.015720505 -0.0067414977 0.037423767
000140 cf e3 d9 3c a0 1b c4 bb a7 b1 b7 3c 3c 64 47 3c
       0.026597885 -0.0059847385 0.022423578 0.012169894
000150 5b 24 53 bc 3a eb 80 bd 2f ad 65 bd b5 78 f5 3b
       -0.012887086 -0.06294866 -0.056073364 0.007491196
000160 80 00 d0 3c ff 84 cf bc 3c a1 ff bb aa f8 62 bd
       0.025390863 -0.025331972 -0.007801203 -0.055412926
000170 55 de 96 3d ce 29 01 3d 59 79 4d 3d 5d f7 a7 bc
       0.07366625 0.03153401 0.050164554 -0.020503694
000180 b7 e6 8a 3d e3 fb 1d 3d 67 80 82 bd 0e fb 3d 3c
       0.067822866 0.038570296 -0.06372147 0.011595501
000190 b6 ff 18 bc 8a f6 f0 bc 2e c4 90 3c 2a 41 b2 3d
       -0.00933831 -0.029414434 0.01767167 0.08703835
0001a0 95 4e 10 bd 22 5b d4 bc 8d f4 6d bd 97 19 ff bc
       -0.03523119 -0.025922362 -0.05809455 -0.031140132
0001b0 6e 19 8a bd 8a 66 98 bc 79 5a 1d 3d a6 8d 11 bd
       -0.067431316 -0.018603582 0.03841636 -0.035535477
0001c0 d6 a2 f3 bc a9 a4 76 bc 97 94 fc bc 28 e9 c6 bc
       -0.029740732 -0.0150539065 -0.030832572 -0.0242811
0001d0 7e 30 b9 3c 7e aa 66 3d cf 1a b3 3d 6a a4 13 3d
       0.02260613 0.056314938 0.08745348 0.03604547
0001e0 f4 17 fa bc 1e 41 67 3d 57 fe 5d bc 5b f5 53 3d
       -0.030529 0.056458585 -0.013549409 0.05174766
0001f0 e8 43 80 bd ad 6c d1 bc 13 b1 5d bd 4a 87 0e 3d
       -0.06262952 -0.025564516 -0.05412395 0.03479699
000200 a1 81 2d bd 0d 14 b5 bc f7 d3 9a 3c c7 ea 80 bc
       -0.042359952 -0.022104288 0.0188999 -0.01573695
000210 0d 47 5d 3c d2 80 39 3d 44 2e 09 bb eb 9b 9b bd
       0.013505709 0.04528887 -0.0020932117 -0.07598098
000220 98 24 8e 3c 29 b7 1c 3a 13 15 7e 3d a8 94 2a 3b
       0.017351434 0.0005978221 0.062031817 0.0026028547
000230 10 9e 65 3d 6b 38 82 3c cd 97 58 bc c6 2a bd 3c
       0.056058943 0.015896043 -0.013219786 0.023091685
000240 81 8f 50 3c 86 f4 78 3c 7f cd dd 3c 58 09 d8 3b
       0.0127295265 0.015195018 0.027075527 0.0065929107
000250 33 fb 5e ba e0 99 67 bd ec 0b 4c bd 06 bc 62 bb
       -0.00085060595 -0.05654323 -0.049816057 -0.0034596934
000260 6b a5 f7 3c 5f 2a c0 bc 31 19 b0 3c 86 85 4b bd
       0.030230245 -0.023457704 0.021496387 -0.049687885
000270 93 e8 3c 3d 17 f1 d0 3c 46 ea 7f 3d 0b f2 96 bc
       0.046120238 0.025505586 0.06247928 -0.018425962
000280 c5 4c b6 3d ac d1 0c 3d 08 c7 30 bd c2 b4 94 3b
       0.089013614 0.034379646 -0.04315856 0.0045381496
000290 03 c7 78 bc 35 b9 35 bb af 81 04 3d 12 43 bf 3d
       -0.015184167 -0.00277288 0.03235024 0.093389645
0002a0 f5 29 c6 bc fc 31 4a 3c 84 a5 28 bd 07 1c cc bc
       -0.024189929 0.012341019 -0.041173473 -0.024915708
0002b0 ac 70 74 bd db 40 94 bb 30 c8 e4 3c c1 68 c7 bc
       -0.059677765 -0.004524333 0.027927488 -0.024341943
0002c0 05 15 99 bc 19 3a 5f bc 91 78 0b bd 66 4f 8c bc
       -0.01868678 -0.013624691 -0.034050528 -0.017127704
0002d0 bb 54 24 3c f4 a9 54 3d d3 8e 67 3d 3e 59 ca 3c
       0.010029967 0.051919892 0.056532692 0.024700757
0002e0 86 26 29 bd 1b a6 32 3d c3 9d 63 3c 6e f1 15 3d
       -0.041296504 0.04361544 0.013892594 0.0366072
0002f0 82 5b 51 bd d0 88 04 bd 11 5c 25 bd b3 b6 2f 3d
       -0.05111266 -0.032357037 -0.040371004 0.042898845
000300 2e 0c 14 3d df aa 25 3d 22 1b 05 bd 9e c5 6d 3c
       0.036144428 0.04044616 -0.03249658 0.014512448
000310 dc 69 79 bc a0 98 20 bd 53 f0 be 3c ae 74 9f 3d
       -0.015222993 -0.039208055 0.023307955 0.07785927
000320 ad 3b bd bc b4 1d c3 bc 63 89 86 bd 35 eb 4c 3c
       -0.023099745 -0.023817874 -0.06569173 0.01250725
000330 78 1f 68 bd 68 b9 78 bc 44 74 af 3c a3 23 d7 bc
       -0.056670636 -0.015180923 0.021417744 -0.02626211
000340 bc 1c 80 bc 8a 31 1a bc 4f 89 a2 bc 26 0f 34 bc
       -0.015638702 -0.009411225 -0.019840864 -0.01098994
000350 c5 d5 ac 3c 9c aa 66 3d 94 25 8f 3d c6 c3 8c 3c
       0.021098027 0.05631505 0.06989589 0.017183196
000360 8d 1a 10 bd b3 2b 1e 3d db f0 ab bc 5e d5 47 3d
       -0.03518157 0.038615894 -0.020988872 0.048787467
000370 09 14 b4 bd 73 d1 0d bd 6b c2 7f bd 59 2d 9b 3b
       -0.08792884 -0.034623574 -0.06244127 0.0047356305
000380 9c a8 6c 3d 1f e9 7c 3c b9 b5 e2 bc 13 22 fb 3c
       0.057777986 0.01543644 -0.027674543 0.030655896
000390 3a 76 65 bc 51 4f 3f bd d1 7d cb 3b b7 f8 bf 3d
       -0.014005238 -0.0467065 0.006210067 0.093736105
0003a0 aa 73 2f bd 67 ee 5c bc f5 f4 8e bd 92 00 52 bc
       -0.042834915 -0.013484574 -0.069803156 -0.012817519
0003b0 db 24 91 bd 80 d2 f3 bc 8a 8d 56 3c 07 df 32 bd
       -0.07087108 -0.02976346 0.013095269 -0.043669727
0003c0 25 bb db bc 95 fa 81 bb 0f 65 a8 bc 44 d7 ea bc
       -0.026822636 -0.0039666393 -0.020556001 -0.0286671
0003d0 90 50 01 bc ea 86 94 3d 72 dd 91 3d 0d 34 4a 3b
       -0.007892743 0.07252295 0.071223155 0.0030853779
0003e0 8f 77 86 bc ce 40 60 3c 57 c2 f3 bb 6d 24 7d 3d
       -0.016414432 0.013687326 -0.0074389386 0.061802316
0003f0 b8 1d 98 bd d6 e4 24 bd ef 66 a2 bd 0e 5f 93 3c
       -0.074275434 -0.040257297 -0.07929789 0.017989662

context_transformer_0/ffn_layer_0/intermediate_dense/einsum/Einsum;context_transformer_0/ffn_layer_0/intermediate_dense/Relu;context_transformer_0/ffn_layer_0/intermediate_dense/add f4 [32]
000000 04 ac 3e be 4d 7e a1 be 54 9f 7d be 23 01 80 be
       -0.18620306 -0.31541672 -0.2476781 -0.25000867
000010 3b e2 99 be b7 a1 8d be 55 19 21 be b3 6b a0 be
       -0.30055413 -0.2766244 -0.1573232 -0.31332168
000020 cc c8 eb be e0 7d ad bd 60 3f 5b 3c e4 7f ad be
       -0.46051633 -0.084712744 0.013381809 -0.33886635
000030 08 11 7f be 9b 22 fd bd 9e 89 3f be 06 8a eb be
       -0.2490884 -0.12360116 -0.1870484 -0.4600374
000040 ad d0 81 be 81 14 7b be b6 d9 be be 66 5d ff bd
       -0.2535452 -0.2451954 -0.37275475 -0.12468986
000050 7e 66 0d bd d9 fc cd be fd b9 bb bd 9d 02 12 be
       -0.034521572 -0.4023197 -0.09166334 -0.1425881
000060 25 1f df be f0 51 74 be 71 9c 41 be 1d 73 47 be
       -0.4357845 -0.23859382 -0.18907334 -0.19477506
000070 91 4b 7a be 6c 9e 6e be 2a 33 5f be 03 b6 55 be
       -0.24442889 -0.2330262 -0.21796861 -0.20870213

context_transformer_0/attention/norm/mul;context_transformer_0/attention/norm/add;context_transformer_0/ffn_layer_0/intermediate_dense/einsum/Einsum;context_transformer_0/ffn_layer_0/intermediate_dense/Relu;context_transformer_0/ffn_layer_0/intermediate_dense/add f4 [32, 32]
000000 cb 68 98 be 46 7c b3 bd aa 26 77 bc 65 c3 27 3e
       -0.2976745 -0.08763938 -0.015084902 0.16383131
000010 25 8b b6 be 52 91 26 bd 7b db e1 3c 3a c1 7a 3e
       -0.35653034 -0.040665932 0.027570477 0.24487773
000020 d3 09 20 3d f9 71 bd be 51 93 09 3f 6e be 57 3e
       0.03907187 -0.37001017 0.5374041 0.21068737
000030 3f 9c e3 bc 94 82 00 be 77 5a 9b 3d f9 f0 5c 3e
       -0.027784465 -0.12549812 0.07585614 0.21576299
000040 7f 0b 00 3e 39 88 dd 3d 2b c7 59 3d ab d0 24 be
       0.12504385 0.10816998 0.053168457 -0.16095226
000050 08 ea 90 3c 2e ed de 3d 14 a7 c2 3d 1c 9d 8a 3d
       0.01768972 0.10885082 0.09504524 0.067682475
000060 00 9f 8d be 90 ff 84 3d 1d 75 25 be 6e 90 84 bd
       -0.2766037 0.06494057 -0.16157956 -0.0647286
000070 7a e6 20 be 88 20 41 3e 3f 39 3a bd a3 78 ca bd
       -0.1571292 0.18860066 -0.04546475 -0.09886291
000080 40 10 ba bd ba d9 b0 3e 59 18 db 3d 44 19 74 be
       -0.09085131 0.34541112 0.10698003 -0.23837763
000090 e3 83 a1 3d 8c d3 7e 3d 59 23 93 3e c7 dc f1 3c
       0.078864835 0.062213466 0.28737906 0.02952422
0000a0 9e f4 90 bd 79 1f c2 3e 99 62 d9 3d 1c 06 17 3e
       -0.07077907 0.37914637 0.10614509 0.14748424
0000b0 b7 af 36 be 51 0d 22 3e 1e 7c 93 3d 46 02 0b 3f
       -0.17840467 0.15825392 0.07201408 0.54300344
0000c0 c9 f9 d0 bd 23 7f 4c 3e a9 ba 47 bd d6 7e 05 be
       -0.10203893 0.19970374 -0.048761997 -0.13036665
0000d0 ae 8f eb 3d 7e 1c 06 3e 47 7a 5c 3e 73 7a 15 be
       0.11502014 0.13096806 0.2153102 -0.14597492
0000e0 54 c6 b1 bd 6c b2 db 3e 6e 11 b5 bc 71 89 80 be
       -0.08680406 0.42909563 -0.022103038 -0.2510486
0000f0 d2 2c 66 3b f8 ef 72 bd 05 10 2e 3d b5 98 27 3e
       0.003512193 -0.059310883 0.042495746 0.16366847
000100 f4 d0 b0 be f3 50 3f be 9c f5 29 be 6e 53 99 3d
       -0.3453442 -0.18683223 -0.16597599 0.07486616
000110 db 63 e0 bd eb 2a 38 be 17 58 71 bc 44 36 61 be
       -0.10956546 -0.17985122 -0.014730475 -0.21993357
000120 91 94 ad 3d 2d 81 81 3d 3f 90 c9 be 89 fd 8b 3e
       0.084756024 0.063234664 -0.39367864 0.2734187
000130 7b 86 6d be 79 3f 8a be 0d f5 d9 bd 32 cc aa 3d
       -0.23195831 -0.2700155 -0.10642443 0.083397284
000140 0b 2b 11 3e f2 b7 19 3e bd 1a a2 be ac 62 0e be
       0.14176576 0.15011576 -0.31661025 -0.13904828
000150 94 c7 06 3e 9e 2a 23 3e 7c fa 83 bd b7 a7 64 3e
       0.1316207 0.15934226 -0.064442605 0.22329603
000160 c0 55 81 bd 33 ae bf 3d 2d 1a af 3d c9 1b 63 be
       -0.06315184 0.09359398 0.085499145 -0.22178568
000170 2e 4c eb 3e 4a 45 b5 3d b6 bb 20 be 92 5c 7d bd
       0.45956558 0.088511065 -0.15696606 -0.06185586
000180 f5 cd 96 3e e2 3e 9d 3d 22 6f ef 3d a9 ff 09 bf
       0.29454008 0.076780096 0.11691119 -0.5390573
000190 18 b1 3d 3e 73 53 1b bc d5 2e 49 be a2 fc 3a 3e
       0.18524587 -0.009480345 -0.19646771 0.18260434
0001a0 b7 34 80 be 68 c0 07 3e 69 8f c3 3e 35 c2 f4 be
       -0.25040218 0.13256991 0.3819535 -0.47804418
0001b0 1b fa 83 bc ce 73 bf 3e 1c f7 a9 bd f1 d2 8d 3e
       -0.01611047 0.3739304 -0.082990855 0.27699998
0001c0 8d 5c 37 3e 2c 85 6e 3e 6d 43 be bd 83 e3 46 be
       0.17906399 0.23292989 -0.09290204 -0.19422726
0001d0 28 64 f5 bd 87 17 d0 3d 9f 42 6d bd 09 27 7b 3d
       -0.11981994 0.101607375 -0.057924863 0.061316524
0001e0 6f 9a d7 3c 39 91 c9 3d 27 1f 33 3d ea 80 3a 3d
       0.026318757 0.09842152 0.04373088 0.0455331
0001f0 e5 80 64 3e 81 ce 7a 3d 41 82 20 be 38 ca d2 3d
       0.22314794 0.061232094 -0.15674688 0.102924764
000200 70 18 ec bd ff 36 ef bd de 07 27 3d 2e 39 85 be
       -0.115280986 -0.116804115 0.040778987 -0.26020187
000210 9b 6d 4a 3e 57 54 8a bd fd c7 a9 3e 6c 2d dd 3c
       0.19768374 -0.06754368 0.3316039 0.026999198
000220 c6 e5 dc 3c 15 e8 15 3f d8 8a b9 be a9 dc ce bd
       0.026965033 0.58557254 -0.36238742 -0.10100681
000230 3d 90 d2 3d c7 34 2a 3d f7 8c 9b 3d 1d 93 37 bb
       0.102814175 0.04155424 0.07595246 -0.002801127
000240 01 26 a8 bd 55 99 5c be 62 6b 9a be 8b a5 8a 3c
       -0.08210374 -0.21542867 -0.30160052 0.01692464
000250 3b 08 7f 3d 9c 75 ba be ce 7d 5b 3e e4 64 0f 3e
       0.06226371 -0.36417854 0.2143471 0.1400333
000260 d7 14 01 be ee f4 24 be 0f 09 af 3d 20 0f 22 be
       -0.12605606 -0.16109058 0.0854665 -0.15826082
000270 32 c6 8b 3d ce 5e 7b bd a6 7a 09 3f a6 80 79 be
       0.06824912 -0.06136971 0.5370277 -0.24365482
000280 10 6d 06 3e 16 77 9c be f3 bd 85 3d 2c 7f a4 3d
       0.13127542 -0.30559605 0.065303706 0.080320686
000290 a8 53 87 be 50 cc 8f 3e dd 02 12 be aa 75 08 3d
       -0.26431012 0.28085566 -0.14258905 0.03331534
0002a0 7f 76 9e be 80 f0 7f 3e 4b b1 d1 3c 33 e5 9f be
       -0.3094978 0.24994087 0.025597235 -0.31229553
0002b0 e4 42 86 39 9a 64 3d 3e 81 5f 87 be d7 8b 84 3e
       0.0002560831 0.18495408 -0.2644005 0.2588794
0002c0 f3 07 4d 3e c9 d1 8d 3d f4 fe 67 3e 5a c9 7c be
       0.20022564 0.06924779 0.2265585 -0.24686185
0002d0 9a 6f 1e 3e 1a eb 36 3d 5f d6 fa bd e4 32 98 3e
       0.1547226 0.044657804 -0.12247919 0.29726326
0002e0 89 2f 55 3d 78 35 c7 3e 9c 7a fa bd df 5b 1c 3e
       0.052047286 0.3890798 -0.12230417 0.15269421
0002f0 ab 9c 90 3c 44 c6 71 be 57 7a ec 3d cf 5e 99 3d
       0.01765283 -0.23610789 0.11546772 0.074887864
000300 90 bd 25 be b7 ee a1 bd be 20 87 be cf 7d 84 3d
       -0.16185594 -0.07906859 -0.26392168 0.064693086
000310 1a ae 9c be eb 1c e9 3d b2 a8 03 bd 5a c1 0a be
       -0.3060158 0.11382469 -0.032143302 -0.1355032
000320 3e 24 61 bd 69 31 c1 be 3f 7e e7 bc a4 4c ca bb
       -0.054966204 -0.3773301 -0.028258441 -0.006173687
000330 55 04 18 3c b4 40 1e be 24 94 e7 bc 5f 9e d6 3e
       0.009278377 -0.1545437 -0.028268881 0.41917703
000340 64 f2 39 bd fe de 59 3c e2 76 e0 be 8d 09 0f bf
       -0.045397177 0.013297794 -0.438407 -0.5587395
000350 9b 40 e7 bd 84 88 11 bd 82 1b bb 3e 00 a1 c6 3c
       -0.112916194 -0.035530582 0.36544424 0.024246693
000360 c1 43 57 3d 3d 53 7a 3d a2 bb 3f 3e 2d 8f ff bd
       0.05255485 0.06111454 0.1872392 -0.124784805
000370 b3 80 b3 be 19 01 1d 3e cb e9 c0 3d a1 91 50 3e
       -0.35059127 0.1533245 0.094195925 0.20368053
000380 53 9a e4 3d a1 49 80 be f8 59 fb bd 5e 75 cb bd
       0.111622475 -0.25056174 -0.122730196 -0.099344954
000390 b8 e8 89 3d 34 74 df bc 91 c1 c1 3d ac 64 b0 bb
       0.06733841 -0.02727709 0.09460748 -0.005383095
0003a0 dd c7 3f bd 29 63 61 bd c7 55 93 bd db 39 90 be
       -0.046821464 -0.055026207 -0.07194095 -0.2816914
0003b0 99 f0 35 be d5 87 f1 3e 70 2c b8 3d 82 70 67 bd
       -0.17767562 0.47173944 0.08992851 -0.05650378
0003c0 46 93 28 3e 63 6f e5 3d 2f c2 08 bd 48 f4 4e 3d
       0.1646243 0.11202886 -0.033388313 0.050525934
0003d0 27 8a 76 be 57 4d fc 3e 7d 58 2d be 5d 2c 24 3e
       -0.24076138 0.49277756 -0.16928287 0.16032548
0003e0 61 3e be bd 6f 93 3c 3d 95 99 29 bd 76 b9 2b 3e
       -0.092892416 0.04603904 -0.041406233 0.16769966
0003f0 77 1a 18 3d 59 32 aa 3d 9f ca b6 3c c8 a0 8d 3e
       0.037134614 0.08310384 0.022313414 0.2766173

context_transformer_0/ffn_layer_1/intermediate_dense/einsum/Einsum;context_transformer_0/ffn_layer_1/intermediate_dense/Relu;context_transformer_0/ffn_layer_1/intermediate_dense/add f4 [32]
000000 4e 56 a5 be af c5 68 be 50 b4 eb be 6e 4c 67 be
       -0.32292408 -0.2273166 -0.46036005 -0.2258775
000010 54 5f 44 be 25 c9 82 be 01 4d c5 be 75 0d 91 be
       -0.1917699 -0.25544086 -0.38535312 -0.2833058
000020 57 e0 80 be 7f 69 3a be bf 28 b3 be 3a 67 40 be
       -0.25171158 -0.18204306 -0.34992024 -0.18789378
000030 20 26 5a be 23 fb 47 be 2f 72 97 be 29 d9 e1 bd
       -0.21303606 -0.19529395 -0.29579303 -0.11027748
000040 4f 19 cd bd 96 5a 85 be 57 ad 8e be c8 b4 1b be
       -0.10014593 -0.26045674 -0.27866623 -0.15205681
000050 06 6d f8 be 3a b1 f6 bd 1b 16 44 be 0e c0 c3 be
       -0.48520678 -0.12045522 -0.19149058 -0.38232464
000060 da 62 37 be b7 3c 80 be 27 2c 3e be 41 f5 7c be
       -0.17908803 -0.25046322 -0.1857153 -0.24702932
000070 6d 1e 38 be ac 08 84 be ce 96 c5 bd 74 75 4e be
       -0.17980357 -0.25787866 -0.09647904 -0.20161992

context_transformer_0/ffn_layer_0/norm/mul;context_transformer_0/ffn_layer_0/norm/add;context_transformer_0/ffn_layer_1/intermediate_dense/einsum/Einsum;context_transformer_0/ffn_layer_1/intermediate_dense/Relu;context_transformer_0/ffn_layer_1/intermediate_dense/add f4 [32, 32]
000000 42 b6 5b be a9 f7 90 be 59 ed 2a be d1 e9 53 bd
       -0.21456245 -0.2831395 -0.16692103 -0.051736657
000010 62 f9 c5 bd 58 eb 58 3d d8 45 95 bd 59 a6 14 3e
       -0.096667066 0.052958816 -0.07288712 0.14516582
000020 64 ad a4 3d 35 a7 8f be 45 09 bd 3e d0 2f 82 3e
       0.08040884 -0.28057256 0.36921135 0.25427103
000030 2c f3 75 3d dc 78 84 be 79 51 5f 3e 23 5e 1d 3e
       0.06004636 -0.25873458 0.21808423 0.15367942
000040 c8 b4 74 bd 0c 41 cd bd d1 76 bf bd 92 67 27 3d
       -0.05974272 -0.10022172 -0.09348834 0.040870257
000050 dd 83 87 bb 7b 76 31 3e 6c 74 62 3d 61 f2 04 3e
       -0.0041355924 0.17330353 0.05528681 0.12983085
000060 a1 63 34 3e fa 0b 59 3e 43 b0 12 3d 26 ee 94 bd
       0.1761613 0.21195975 0.035812628 -0.07271986
000070 fe 4b af be 19 49 13 be 9e e5 5e 3e 0c 55 45 3e
       -0.34237665 -0.14383353 0.2176728 0.19270724
000080 d2 f2 1b bd 66 75 4d be 87 23 08 3e e2 97 ff bd
       -0.03807337 -0.20064315 0.13294803 -0.12480141
000090 53 95 f2 3e 0a a5 e8 bb 02 dc 40 3d 8d 51 03 3e
       0.4737955 -0.0070997523 0.047084816 0.12824078
0000a0 b2 58 8e 3d ef 52 d9 3d 84 36 8a 3e 9c e4 a3 ba
       0.06950511 0.106115215 0.26994717 -0.0012504044
0000b0 e0 2a df bd 7c ae 28 be 90 f0 0d 3e 1d 50 12 be
       -0.1089685 -0.1647281 0.13861299 -0.14288373
0000c0 c7 77 68 3e de 03 43 be a6 d2 16 be 09 b0 13 3d
       0.22701941 -0.19044444 -0.14728794 0.036056552
0000d0 6c 67 f8 bd 8d 59 91 be 0b 5f 2f be 7d aa 0f 3e
       -0.12129101 -0.28388634 -0.171261 0.1402988
0000e0 15 b6 bb be 72 1e ba bb c2 0c 0e bd 07 8c 5a 3e
       -0.36662355 -0.005679899 -0.034680136 0.21342479
0000f0 89 04 41 3e f8 f9 d2 3e 71 e1 b5 3c a7 1d 4d bd
       0.18849386 0.41206336 0.022202225 -0.050077107
000100 07 4a 24 bd 2d 90 e5 bc d4 28 6d be 8e c0 f6 3d
       -0.04010966 -0.02802285 -0.23160106 0.12048446
000110 64 d3 92 3e 43 05 8d be 1a 37 ce 3d e3 ef 83 3d
       0.28676903 -0.27543077 0.100691035 0.06442239
000120 e8 b4 45 be d8 0a 77 be b5 e9 6f 3e 4b 61 c4 3d
       -0.19307292 -0.2412523 0.23428996 0.0958887
000130 13 7f 13 bd e4 9e 6d bd 37 0a 18 3e c3 71 8e bd
       -0.03600986 -0.058012858 0.14847647 -0.06955292
000140 c8 e2 43 3d 48 a7 49 3d 96 19 44 3d 9c 05 aa 3d
       0.047823697 0.049231797 0.047875963 0.08301851
000150 05 ea b2 be 46 d7 eb 3d b6 09 44 3e f3 26 86 3e
       -0.34944168 0.115156695 0.1914433 0.2620159
000160 d6 52 47 3e fc 21 b6 3c 53 17 51 3d 89 6d c8 bd
       0.19465193 0.022233002 0.051047634 -0.09786517
000170 0a 98 fd 3d 35 85 d2 3d a5 70 7f 3d fd cf 8e 3e
       0.12382515 0.102793135 0.062363286 0.27893057
000180 77 ca a5 bd e3 e3 de 3d 20 72 27 be 23 e4 c5 bd
       -0.08095258 0.1088331 -0.16352129 -0.09662654
000190 e2 31 a0 bc 8d 0a ac bd c1 7f 97 3d 6f 6a 3e be
       -0.019555036 -0.0840045 0.07397414 -0.18595289
0001a0 e9 55 e6 3d 4e 56 1a 38 e7 43 6d be b4 b3 8d bd
       0.11246855 3.679684e-05 -0.23170434 -0.06919041
0001b0 bc 37 e1 bb 86 53 a7 3d b6 95 bd 3c 67 8d 84 3c
       -0.006873099 0.08170228 0.023142677 0.016180707
0001c0 41 40 6c be ec c8 1d 3e 30 1b 3a 3e fa 82 07 3e
       -0.23071386 0.15408677 0.18174434 0.13233557
0001d0 9e 1f 66 be fd c3 96 bc d5 61 bf 3d 36 4d dc 3d
       -0.22472998 -0.018404001 0.09344832 0.10756914
0001e0 e9 78 06 be 1c c7 da 3d 40 7b a3 3d c1 ad 8a 3d
       -0.13132061 0.10682508 0.079824924 0.06771422
0001f0 c2 87 0a be dd 93 56 3d 51 11 de bd d7 2c 26 3d
       -0.1352835 0.052387107 -0.108431466 0.040570106
000200 ad fa d1 3c 5c f2 8a 3e 2f b8 8d be bf ee c8 bd
       0.025632227 0.2713803 -0.27679583 -0.09811162
000210 23 6a 89 3d 1f ea 7e be 32 bc 35 3d a6 a5 79 3e
       0.06709697 -0.24893998 0.04436893 0.24379596
000220 b6 c5 48 3d 3a fe bf be c2 0b df be 94 bb 15 3e
       0.049016677 -0.37498647 -0.43563658 0.14622337
000230 aa 97 b9 3d ba 59 c6 bd 18 1b 95 be 49 ab 03 be
       0.09062131 -0.09685083 -0.29122233 -0.12858309
000240 8b 0f 9c bd cd 60 0c be e8 61 75 3d 23 24 04 be
       -0.07620152 -0.13708802 0.059907824 -0.1290441
000250 3d fd 53 bd b1 af 3d be 2d 8b 91 3d 17 6a da b9
       -0.05175518 -0.18524052 0.07106624 -0.00041659243
000260 6d 1f ca bd 32 b7 a1 3e 7e 51 1e bd cc 07 24 3d
       -0.09869275 0.3158508 -0.038651936 0.0400465
000270 43 7a a4 3d d6 08 b0 3d 99 2b ad 3d e9 a3 c8 3d
       0.08031132 0.08595435 0.08455581 0.097968884
000280 69 f7 9f bd 0f 43 96 3e 65 21 3e 3d af bd 06 3e
       -0.078108616 0.29348037 0.046418566 0.13158296
000290 a9 d0 19 3e 41 0a e9 3c be 24 cf bd fe b4 00 3d
       0.15021004 0.028447272 -0.1011443 0.031422608
0002a0 4a e1 29 be 8f 55 43 be b9 9f ad bd 38 72 70 3e
       -0.16589847 -0.19075607 -0.0847773 0.23481071
0002b0 08 58 09 be 26 ea 84 bd 7b b3 b4 3e 9d fe 00 3e
       -0.13412488 -0.06489973 0.35293183 0.12597127
0002c0 f2 a2 e1 bd ed ca 18 3e bc f9 de bc b7 e2 27 bd
       -0.110174075 0.1492116 -0.027218692 -0.040987696
0002d0 2d fb c9 be f0 74 c3 be 0f 72 42 3e e4 05 9f bc
       -0.39449444 -0.38175154 0.18988822 -0.019411989
0002e0 c8 1d 0f 3d 96 a0 48 3e 9f ab a6 bd 78 71 f0 bd
       0.03494051 0.19592509 -0.08138203 -0.117403924
0002f0 ae a9 43 be f1 12 87 be aa 97 e6 3d 25 87 a9 3e
       -0.19107696 -0.2638164 0.112593964 0.3311092
000300 3a fb 7b be 1d 66 63 bd 57 0a 42 be fb 3d a5 3c
       -0.24607554 -0.055517305 -0.18949257 0.020171156
000310 50 93 fd bd 26 cf 8e be 9c 7a 85 be 04 28 6f be
       -0.12381613 -0.27892417 -0.26070106 -0.23355108
000320 ae 13 14 3e a1 c4 5b be 29 5f 42 be 8a ac f6 bd
       0.14460632 -0.21461727 -0.18981613 -0.12044628
000330 70 ee 0f be 77 fb 87 be c7 05 03 3e 50 7c 60 bd
       -0.140558 -0.2655904 0.12795173 -0.054806054
000340 56 3b 96 3e ff b2 ed bc dd 56 dd 3d f2 f1 ae 3e
       0.29342145 -0.029016016 0.108075835 0.34168965
000350 41 29 5a be 5a bd 45 3d 84 ae 86 bd 37 29 13 3e
       -0.213048 0.048276283 -0.06576255 0.14371191
000360 1b 31 10 3e 82 07 1b bd 50 b0 1a bd 34 85 3e 3d
       0.14081232 -0.037848957 -0.0377658 0.04651375
000370 38 e7 94 bc 12 18 8f bd aa a0 0b be ce 7d ac 3d
       -0.01817666 -0.06987013 -0.13635507 0.08422433
000380 a4 59 a0 be bd f1 d1 bd d0 b9 52 be d9 12 1c 3e
       -0.3131839 -0.10251186 -0.20578694 0.15241565
000390 b2 9b 41 3c 9f fa d3 bd cb 19 1b 3e 4c 3d d3 bd
       0.011816906 -0.103505366 0.15146558 -0.10314426
0003a0 d3 6d e3 3d 48 0f ad 3e 73 ca 85 be f8 07 8a bd
       0.11104932 0.3380072 -0.2613102 -0.06739801
0003b0 f9 27 46 3d 81 0a 5e be 75 47 2f 3d 6f e7 4c 3e
       0.048377965 -0.21683694 0.042792756 0.2001016
0003c0 00 44 f6 3d 10 c2 6c 3d 4f 48 8f 3e e8 72 c1 bd
       0.12024689 0.05780226 0.27984855 -0.09445745
0003d0 53 e5 e1 3d 73 db 04 3f df a2 b9 bc dd 89 99 3e
       0.11030068 0.5189735 -0.02266067 0.29987994
0003e0 91 fb a6 3d c0 7e 6c 3e a1 7c c2 3e d8 5d cb bd
       0.08153451 0.23095226 0.3798571 -0.09930009
0003f0 8f b3 56 bd 52 4f c9 3c 4a 2d 3e bc f1 10 02 bb
       -0.052417334 0.024573956 -0.011607477 -0.0019846524

context_transformer_0/ffn_layer_2/intermediate_dense/einsum/Einsum;context_transformer_0/ffn_layer_2/intermediate_dense/Relu;context_transformer_0/ffn_layer_2/intermediate_dense/add f4 [32]
000000 59 d2 4e be 76 77 b5 be 47 c6 45 be 3e 59 13 be
       -0.20197429 -0.35442704 -0.19313918 -0.14389512
000010 0a a8 67 be a8 3b 0f bf 32 a9 25 be 84 7a 04 be
       -0.22622696 -0.55950403 -0.16177824 -0.12937361
000020 c3 2a 6a be 79 bb 1b be 0b ad 70 be 9c e0 d4 bd
       -0.22867875 -0.15208234 -0.2350351 -0.10394403
000030 6a f7 17 3d 4a 7d 5c be b1 5d c2 bc eb b3 d3 bd
       0.037101187 -0.21532169 -0.023726316 -0.10337051
000040 97 bf 20 be ee 34 48 be 43 5d 0b be 51 5c 28 be
       -0.15698086 -0.19551441 -0.13609795 -0.16441466
000050 46 62 3e be 39 3d 7e be fd bd 33 bd 11 e5 93 be
       -0.18592176 -0.24828042 -0.04388236 -0.288857
000060 e4 19 0f be bd b5 62 be 40 28 1e be d0 52 3e be
       -0.1397472 -0.2213964 -0.15445042 -0.18586278
000070 45 81 1b bd ac 50 14 be be 28 b1 bd 3e c3 20 be
       -0.037965078 -0.14483899 -0.08650349 -0.15699479
