learning/tour-of-beam/frontend/.dart_tool/chrome-device/Default/optimization_guide_prediction_model_downloads/5bf505cd-45ed-4fe2-816b-ed72b246140d/model.tflite (tflite, 67216 bytes, 5 tensors)

dnn/hiddenlayer_1/bias/part_0 f4 [64]
00000000: 5c10 c6bc 8806 293c cd96 243d bdad 33bc
00000010: 869e 963c a62f 50bc 8c8f bc3b ade4 f9bc
00000020: 33a2 8d3d a65c fbbb 17d4 163c 7a55 e63c
00000030: 8ecc 933c 727d 6dbc 7e22 0fbc eee4 adbc
00000040: 8450 fc3c 452b cc3d d044 43bd 14df 35bc
00000050: 0471 b93d ccdd 0f3e 3b6a f2bc 1ff5 2e3d
00000060: db39 ad3c 4f4e 79bc c656 fdbc 34ff ea3d
00000070: bdb1 a5bd 2681 d53b 2c5b 1bbd 400e 203c
00000080: 3a4d a6bd 334b 84bd bb91 8c3d 6f1c 94bb
00000090: 885d da3c b242 08bd ef09 37bd 402c c03d
000000a0: f268 a93d 64c6 6c3d 77de ecbc 9582 cfbd
000000b0: 129b 8fbc 2b5b c13b 8e4f 00bd 9f81 46bc
000000c0: 46a1 dbbb f3c8 8bbc 0a6a c5bc 5aee 423d
000000d0: 5a8a a43d 218f 3f3c ee18 ee3d f7ba 0c3d
000000e0: 99da 0bbd 1724 e2bc dcd4 ea3d 9d0a 0cbc
000000f0: 450e d5bc 9bac 433d 9800 8e3b 4096 ac3c
-0.024177723 0.010316499 0.040182877 -0.010966715 0.018386137 -0.012706673 0.005754417 -0.030504549
0.06915703 -0.0076709567 0.00920584 0.02811693 0.018041875 -0.0144952405 -0.008736251 -0.021227326
0.030800112 0.099691905 -0.047673047 -0.011100549 0.09054759 0.14049453 -0.02959167 0.042714234
0.021145752 -0.015216424 -0.030925166 0.114744574 -0.080905415 0.00651564 -0.037928745 0.009769022
-0.081201985 -0.064596556 0.068637334 -0.004519991 0.026655927 -0.03326673 -0.044687208 0.0938344
0.0827197 0.057806388 -0.028914673 -0.101323284 -0.017529998 0.0059007606 -0.03132587 -0.012115865
-0.006702575 -0.017063593 -0.024098415 0.04759059 0.08034201 0.011691839 0.11625849 0.03435799
-0.034144018 -0.0276051 0.11466381 -0.008547452 -0.02600778 0.04777203 0.004333567 0.021067739

dnn/hiddenlayer_0/bias/part_0 f4 [128]
00000000: 48ef 0ebd 5402 b33d 3ff5 cfbc f97e 163d
00000010: 2c0c c1ba 55f2 a73c 0af1 d8bd 5b38 a03c
00000020: 43c5 7d3d 2127 673d 28b7 1bbc 759d 3dbc
00000030: f8d0 45bc e87f 6d3b 3b63 c0bc 92a0 e9bc
00000040: d246 ddbc 12ec 9f3d 65c4 d5bc eb99 a2bc
00000050: 0863 cc3c 506f 143d 1ba4 343c 48a6 40bd
00000060: 8291 fabc a10a 23bd b7b2 2abc 6948 bdbd
00000070: 9670 823d d4d2 a5bd 19b2 6c3d f8f0 b3bc
00000080: 3812 dabb aa11 42bb a103 84bb 03b7 673d
00000090: df71 41bd ec6e 443c 1e0f e63c dcc6 383d
000000a0: 888e 193d fc9f c83d 5ccc d8bc eed1 0dbd
000000b0: de86 6f3d 1e95 52bb efbc 24bd 220c 133c
000000c0: 698a 143d 82f4 aebb 8242 e93c 27b5 c03c
000000d0: fcc6 e43c 8085 2abe 9d92 003e 5f77 d53c
000000e0: 9a9b 79bb 54ce 3e3d 14a3 48bd c8a9 07be
000000f0: 471c 4b3d da01 8ebb b9a2 1a3d d5ed 403d
00000100: b882 053d 2aaf 8abc b2c3 893c 73c7 2ebd
00000110: 9371 413e 979e 5dbd 81ba 503d 0dd1 863c
00000120: 0c16 14bd 6366 c13c 791e 013d c05c 013e
00000130: 0829 e23d dbf1 45bd 73db 223c 5475 acbc
00000140: b2d2 e83c a493 03bd d681 a2ba 4a7f 593d
00000150: 3a7b f53c fb47 a43c 0287 5b3d 5751 f5bc
00000160: 9d2b 2abc a99b 02bc 483a b83c 3b82 4ebc
00000170: 9778 7fbc c2e7 d33d cbf1 2fbd 280b 95bd
00000180: 2602 ae3d 39c1 cabc 7d9f 25bd 8ce5 c5bd
00000190: 5883 6fbd cccd 253b 9d57 57bd 8a85 46bd
000001a0: 7fc2 313d b860 19bc f9eb 753c e6b6 0c3d
000001b0: e43c 29ba 93dd 84bb 77c5 f73c 5b53 5bbd
000001c0: bba2 383d 4f95 e3bc 1ebd 93bc 079d c83c
000001d0: 769c 903d 03df 04bd b94a 393d daa5 83bc
000001e0: e24a c7bb 8180 82bd 2308 82bd 8e9e 533d
000001f0: 72b8 c8bd 25fc bbbd 0338 78bc 3b03 89bc
-0.034896165 0.087406784 -0.025385497 0.036742184 -0.0014728359 0.020501295 -0.105928496 0.019558122
0.0619557 0.0564338 -0.009504117 -0.011573185 -0.012073748 0.0036239568 -0.023484817 -0.028518949
-0.027011309 0.07808699 -0.026094625 -0.019848784 0.024949566 0.03623897 0.011025454 -0.04703358
-0.030586962 -0.03980506 -0.0104185855 -0.09242327 0.0636913 -0.08096853 0.057787035 -0.021965489
-0.006655004 -0.002961258 -0.004028753 0.056571018 -0.047227737 0.011989336 0.02808338 0.045111522
0.037489444 0.097961396 -0.026464634 -0.034624033 0.05847823 -0.0032132338 -0.040219244 0.008975061
0.03626481 -0.005339206 0.028474096 0.02352388 0.027926914 -0.16652489 0.12555929 0.026057897
-0.003808713 0.04658349 -0.04898365 -0.1324836 0.049587514 -0.004333717 0.03775284 0.047101814
0.032595366 -0.016929228 0.016816948 -0.04267068 0.18890981 -0.05410632 0.050959114 0.016457105
-0.036153838 0.023608392 0.0315232 0.12633038 0.11042982 -0.048326354 0.009940016 -0.02105204
0.02842078 -0.032123223 -0.0012398313 0.053099908 0.029965986 0.020053854 0.05359555 -0.029946012
-0.010386375 -0.007971683 0.022488728 -0.012604292 -0.015592716 0.10346939 -0.0429552 -0.072775185
0.084965035 -0.024750339 -0.040435303 -0.09662923 -0.05847487 0.0025299666 -0.05257379 -0.048467197
0.043398377 -0.009361438 0.015009874 0.034354113 -0.0006455912 -0.004054734 0.030245526 -0.05354629
0.045077067 -0.027781157 -0.018034514 0.024488939 0.070610926 -0.032439243 0.045237277 -0.016070295
-0.006081925 -0.063721664 -0.06349208 0.05166488 -0.09800805 -0.09178952 -0.015150073 -0.016725173

dnn/hiddenlayer_0/MatMul f4 [128, 12]
00000000: d12f 2ebe 9386 81bd d1e1 3bbe c19e 083d
00000010: 33bd cb3d 6b4b a9bc b735 08be 6e21 e6bc
00000020: e523 aa3d 4183 c4bd 4392 473e 3068 42be
00000030: af8a cbbd 40c6 0abe 95fc 623b 5729 59be
00000040: 78ae 9f3c 3ba0 0d3e 6bdc 2abd fe9e 2bbd
00000050: cbdc aa3d 40a0 49be c2d6 9c3d ddf4 7bbe
00000060: 4697 7ebe 672e 6dbd 32ed 0a3e 153b ad3d
00000070: ac34 6e3d ce37 2d3e 9a3d 593e af1f 50be
00000080: 655b 8b3a b138 93bd c70e 4e3d 6f80 023e
00000090: 5fef 25be 1281 0dbd d4e1 7b3d 0636 0f3e
000000a0: 2107 463e 3f7a a93d eec2 b4bd efaa 46be
000000b0: bb93 3e3d a4d2 883e 24b4 d03d b677 4dbe
000000c0: cfda 1c3e 4748 0ebe 7b29 f4bd 70c5 17be
000000d0: 5766 6bbe ff33 1b3d 1e5d 533d 2f69 debc
000000e0: 1f8a 9a3d 8abe f3bd 0800 cbbc 7d1f ab3d
000000f0: 6202 bc3d a186 363e 0f61 143e 7dc1 2abe
00000100: f350 f4bc 03e7 8c3d 06e7 903e f7d0 49be
00000110: 1198 ef3d b5ca 1e3e 0a9c 0d3e a207 4ebb
00000120: 7e13 2dbd 25a7 c6bd 0ddd 4ebe b776 603e
00000130: fbfc be3d 2f38 efbc 7ee1 95be 4342 4ebd
00000140: f2a3 07bc 81ce 2e3e e17c a03c 7412 2c3e
00000150: 9cb3 c0bd 828f 58bc 84d1 69bd 8182 9a3d
00000160: 0e9d 2d3e 208e 0c3e c2bd 42be 24a7 f6bd
00000170: 983c 313e 84a6 dfbd 547b d33d 2be5 62be
00000180: 8f60 493e bd1e 8cbd 7280 333e 2da6 5e3c
00000190: 618f 543e 5362 5f3c 63d2 903d a104 c0bd
000001a0: a8eb 013d 0b1d 05be 9b41 8d3e 49df 2d3e
000001b0: 1cb9 6d3e 9b4e ba3d 0159 3c3e c3c3 35be
000001c0: 5303 a0bc 75d9 e0bd 040e abbd e9cb aabd
000001d0: 8b34 82bd 28a6 e0bd 9c0d 343e eb9f 273e
000001e0: 1584 3fbe 10cc 27bd 970f 593e 4581 253e
000001f0: 94ea 713d ddfb a73d 2d9f 05bd a026 b0bd
00000200: 5a4b d7bd 13fa 833e d6ea 0dbe 9312 0c3e
00000210: 76ee e4bc 93ed 483e 924a a3bd a922 f13d
00000220: 3d57 5d3c 936f 053d 1a6d e3bd 790c 2b3e
00000230: 0ede 153e 6099 d63c 7b1d 803e 598d 2d3e
00000240: 7064 37be 2bdc 403e 5623 363e f581 233e
00000250: 7c7a 24bd c524 11bd 41a6 213e c863 2abc
00000260: f140 403e df0c cebd 7b4a 86bd 2c6b 5abe
00000270: 3590 603d c1cf 3fbe 1481 f73d bb69 8c3c
00000280: ea81 8cbd 4c7f 5f39 ed5e 3b3e f15d 953c
00000290: 2e0f d73c c0c9 b13d 0054 82bc 5d5b 33bd
000002a0: bc08 cbbd 7f49 e4bc 3ece e93b e861 36bd
000002b0: 2ec2 a7bb e818 993c 9056 b0bd b403 533e
000002c0: d92f 8dbd d113 49be 5651 1d3e 4479 a73d
000002d0: 818b 39be 25c7 653e 4102 8dbd 533c fa3d
000002e0: 691e 4dbe d772 eb3d ecc3 ea3d 4cf5 a13d
000002f0: 9db2 b5bd 5f9d 053e ac17 bb3d e4e6 673d
00000300: 767a ebbd c81d 82bd 2571 e5bd 1853 9b3c
00000310: 699e ddbd 844b 443d dc78 53bd 251b 843d
00000320: 93e6 2abd 5b35 083d b3cd 853e ee19 5ebe
00000330: 8d26 84be 7700 813d df32 203d 6835 bb3d
00000340: 5dfa 0a3e dd7f 293e 2253 97bd 7dd8 13be
00000350: 176e a0bc f35e 40bd 2c14 3dbc 2960 80be
00000360: 4ab2 0b3e 83c7 42be 3f10 0dbe 6184 da3d
00000370: 06d4 9d3d 5c0e 35be d080 ea3d d319 15bd
00000380: a69e 0d3e 218d be3d af1b d93c 2e69 40be
00000390: e6b1 40be 04f3 0ebe 9f8a 40be fca9 0bbe
000003a0: 322b 59bd 8cf8 f6bd 5137 5b3e 3e27 223e
000003b0: e797 0b3e 5f2e c63d c607 9cbc 3492 aabd
000003c0: 8d29 d93d ad94 a13d c2a9 603e 95a4 9bbd
000003d0: 18ea 13be 57e4 ddbd f81b 0d3c 2ceb c9bc
000003e0: 34b3 1fbd d2ff 843e 7a46 3dbe 1e59 c53d
000003f0: 8f67 593d 69f6 31be a090 cb3d 8d4f 29be
-0.17010428 -0.06324496 -0.18347861 0.033354525 0.09948196 -0.020665845 -0.1330174 -0.028092112
0.083076276 -0.09595347 0.19489388 -0.18985057 -0.09938561 -0.13552189 0.0034635414 -0.21207176
0.019492373 0.13830654 -0.041714113 -0.041899674 0.08342894 -0.19690037 0.07658149 -0.24605127
-0.24862394 -0.05790558 0.13567045 0.08458535 0.0581557 0.16915819 0.21214905 -0.20324586
0.0010632096 -0.071885474 0.05030706 0.12744306 -0.16204594 -0.03454692 0.061494663 0.13985452
0.19338657 0.0827527 -0.088262424 -0.19401143 0.046527606 0.26723206 0.10190609 -0.20065197
0.15317844 -0.13894759 -0.11921974 -0.1482141 -0.22988258 0.037891384 0.051602475 -0.027149765
0.07545876 -0.11901577 -0.024780288 0.08355615 0.09180142 0.17824794 0.1449015 -0.16675372
-0.029823756 0.068799995 0.28301257 -0.1970862 0.11698926 0.15507014 0.13829055 -0.0031437655
-0.042254917 -0.09699849 -0.20201512 0.21920286 0.09325596 -0.029201595 -0.292736 -0.05035616
-0.008278834 0.17070962 0.019590797 0.16803914 -0.09409258 -0.013217809 -0.057084575 0.07544423
0.16954443 0.13726091 -0.190177 -0.12043598 0.17308271 -0.10920432 0.10326257 -0.22157733
0.1966574 -0.068418 0.17529467 0.013589424 0.2075782 0.013634282 0.07071378 -0.09375883
0.03171888 -0.1299936 0.27589116 0.16979708 0.23215145 0.09097024 0.18393327 -0.17750458
-0.019532835 -0.10978977 -0.08352283 -0.08339674 -0.06357678 -0.10969192 0.17583317 0.16369598
-0.18702729 -0.040966094 0.21197353 0.16162594 0.0590616 0.08202336 -0.032622505 -0.08601117
-0.10512419 0.2577673 -0.13859114 0.1367896 -0.027945738 0.19621877 -0.079732075 0.11774189
0.013509569 0.03257711 -0.11104794 0.16703977 0.14635488 0.026196182 0.25022492 0.16948451
-0.17909408 0.18833987 0.17786917 0.15967543 -0.040155873 -0.035435457 0.15786077 -0.010399766
0.18774773 -0.10061049 -0.06557175 -0.21329945 0.054825027 -0.18731596 0.120851666 0.01714026
-0.06860717 0.00021314359 0.1829793 0.018233271 0.026252355 0.08681059 -0.015909195 -0.043788303
-0.09913775 -0.027867077 0.0071351817 -0.044526964 -0.0051195836 0.018688634 -0.086102605 0.20606881
-0.06893892 -0.19636466 0.15363058 0.081774265 -0.18119623 0.22439249 -0.068851955 0.12218537
-0.20031132 0.11496513 0.114631504 0.07908115 -0.088719584 0.13048314 0.091353744 0.05661668
-0.11497967 -0.063533366 -0.11203221 0.01896052 -0.1082123 0.04792358 -0.051628932 0.0645049
-0.0417238 0.03325401 0.261335 -0.21689579 -0.25810662 0.06298917 0.039111014 0.09141046
0.13572069 0.16552682 -0.07388903 -0.14438052 -0.019583745 -0.04696555 -0.011540454 -0.25073364
0.1364223 -0.1902142 -0.13775729 0.106697805 0.07706456 -0.17681259 0.1145035 -0.03640158
0.13830051 0.09304262 0.026502458 -0.18790123 -0.18817863 -0.1395989 -0.1880288 -0.13639063
-0.05301971 -0.12059125 0.2140782 0.15835282 0.13632165 0.09676813 -0.019046675 -0.08328667
0.10603628 0.07889686 0.21939757 -0.07599751 -0.14444768 -0.10834568 0.008612625 -0.024648272
-0.03898926 0.25976425 -0.18483916 0.096361384 0.053077277 -0.17379154 0.099396944 -0.16534252

dnn/hiddenlayer_1/MatMul f4 [64, 128]
00000000: 974d 0ebe 2468 78bd 3c85 503d a44d 84bd
00000010: a358 30bd afba 29bd bedc 273e ef07 86bd
00000020: 566a f1bd 3bd0 c33b 50e7 d7bc 4e3e 0fbe
00000030: 628b 1dbe 3353 193d 9692 60bd ef95 073d
00000040: b112 663d 0d68 2c3e 5cf6 7d3d e8c6 c73d
00000050: fe43 05be 4fba 1bbe b29b cd3c 8e54 a13d
00000060: 82a6 39be 0ec8 67bd 9093 95bd 1c8e 1f3e
00000070: 2359 3d3d 5eea 8e3d 3798 0dbe 61f3 3ebd
00000080: 0f66 1ebe f449 e33d 4d3d 303e f19a c43c
00000090: 8de6 323d 4031 0cbe 34f6 07be b683 0b3e
000000a0: c2ba 023e 68ec ddbd 0c34 acbc 5369 9fbc
000000b0: d429 d93b 4f0b 56bd 8909 163e 5ef2 1abe
000000c0: 7fdb e13c 2fd8 d23b 3197 a63c 5d38 693d
000000d0: 7037 5b3c 8f4d ff3d 7957 9a3d 3a0a bbbd
000000e0: e428 d03d 087d 29be e3c5 413c cd92 1a3e
000000f0: c954 09be 803c 093e fc8c bfbd 13b6 463b
00000100: 47cc 04be a4f5 bd3d 3034 353d 6507 1e3c
00000110: 4dbb b03d fddd 053d f4bc 1dbe b84d 5cbd
00000120: b936 123e 3edc 18be 140e 29be 8d26 bfbd
00000130: e947 32bd c779 123e c291 36be 9b18 02be
00000140: 1dff fd3d ff39 03bd c87d 4fbd 0361 aa3d
00000150: 38c5 153e debd 19be aeea 72bd 7683 46bd
00000160: ef9d 38be e515 c3bd 4dfa a0bd 9499 66bd
00000170: fefe 23be 84b5 2bbe 4fe4 26be 8b8e 843d
00000180: a0e1 1a3d bdb6 fa3d 3f95 233e 39ff 6bbd
00000190: 8ec5 9ebd f75c debd bf0c 32be 1362 233e
000001a0: 1c61 213e 351a 013d 3544 e8bd dbd1 a5bc
000001b0: 017c 13bd 8a46 93bc 2a84 183e aaa4 ee3d
000001c0: 4ec8 cc3d 848b 893d bb70 ddbd 181e 293e
000001d0: 7b64 d0bd daa9 753c 58b0 98bb 3ef6 00be
000001e0: 1944 67bc cdfc fa3d e659 593c a073 ab3d
000001f0: 8899 4c3d 4328 ff3d 93ae 183e 2c8a 0fbe
00000200: 5e55 0cbe ccea 35be 6108 c03c 4c66 823d
00000210: 5259 25bd 5e06 433e e051 60bd be79 40bd
00000220: f50e abbd f08f 90bd 47d8 1c3e f9c1 14be
00000230: 78d8 15bd 735f 863d 1be7 01be aca9 dfbc
00000240: 269f 603d 54cd f0bc 6453 b03d 8be1 3f3d
00000250: a60e 3e3e 329f 043e 25a6 cc3d 8006 f63d
00000260: 52d4 cebd e2a3 3a3e 61aa 883d 3151 30be
00000270: 5b9b 603e 431d dbbd fc14 ac3d 2a9f 69ba
00000280: 0906 04be adaf 24bd 0880 1fbe 5292 c13d
00000290: 9887 19be 944e 3dbd 647c 023d bb0d d8bd
000002a0: 041e 6bbc 147b cb3d 02cb 4bbd 0422 e8bd
000002b0: f69c 51bc 0384 3cbd 090b 2dbe 619a e4bd
000002c0: 28ed 0f3e dc9e cfbd ff83 3c3d c639 8cbd
000002d0: cb77 0fbe 14ac dbbc 699b 34be 9d34 933d
000002e0: 248f 1d3e b9fc 393c 1773 273e 4176 2ebe
000002f0: 2e93 06bd 2bfa 00be 53b1 5d3e 8b67 bebd
00000300: 4ac6 dabd 4565 223e 588c 253e 2ef3 85bd
00000310: e9f2 cfbc edd3 253e 155b bcbd e7c5 933d
00000320: 528a f23d ac25 193d cc86 07bc 4289 df3d
00000330: 1851 9dbd 775b 023e dec1 223e 619a 61bd
00000340: 48c2 aa3c 2ed2 443d 3169 923c d558 91bd
00000350: a7e4 00bd 62c7 05bd 1a2f f83c 006b 343e
00000360: 6332 0b3d a7bf ddbd 6deb f8bd d08d 1a3e
00000370: b706 f0bd bc9e e1bd f0cd 053e 62eb 2bbd
00000380: 5833 463c 89a8 853d 1f92 1a3d 85c5 00be
00000390: f7b9 8f3d c24d a93c 4580 9e3d 1102 ecbd
000003a0: 214b 63bd a824 273d 01fe 643e c81c 3c3d
000003b0: f631 a6bd e38b 2b3e 097a debd 9409 a5bc
000003c0: a8eb 1cbe 6ee9 59bd fa39 15be a7c2 563d
000003d0: 3151 6a3d f3c4 833d f01e 943d db2c 253e
000003e0: a5a3 e33c 403e 273e 5aca 67bd 017a 163e
000003f0: 640a f43d e701 163e 04c5 1b3e a7ce 933b
-0.13896786 -0.06064619 0.050908312 -0.06460121 -0.04305328 -0.0414378 0.163928 -0.06544482
-0.1178786 0.0059757507 -0.026355416 -0.13988611 -0.15385202 0.03743286 -0.054827295 0.033101972
0.05617017 0.16836567 0.062002525 0.09754735 -0.13014218 -0.1520779 0.025098655 0.07877456
-0.18129924 -0.05658727 -0.07303536 0.15581554 0.046227586 0.06978296 -0.13827597 -0.046618823
-0.1546862 0.1109809 0.17210884 0.023999663 0.0436769 -0.13690662 -0.13277513 0.13624462
0.12766555 -0.108361065 -0.021020912 -0.019459402 0.0066273008 -0.05225688 0.14652075 -0.15131518
0.027570484 0.0064344625 0.020335766 0.056938518 0.013379917 0.12465965 0.07536215 -0.0913281
0.10164049 -0.16551602 0.011826965 0.15095063 -0.13411249 0.13401985 -0.093530625 0.0030320927
-0.1296855 0.09275368 0.044239223 0.009645318 0.08629475 0.032682408 -0.15404111 -0.053785056
0.14278688 -0.14927766 -0.16509277 -0.09333525 -0.04352561 0.14304267 -0.1782904 -0.12704699
0.124021746 -0.03203773 -0.050657064 0.08319285 0.14626014 -0.15013835 -0.05930584 -0.048465215
-0.18028997 -0.095256604 -0.07860241 -0.056298807 -0.1601524 -0.16768461 -0.1629803 0.064725004
0.03781283 0.12241886 0.15974902 -0.057616446 -0.07752524 -0.108575754 -0.17387675 0.15955381
0.157597 0.031519134 -0.113411345 -0.020241668 -0.03600693 -0.017977972 0.14894167 0.11652501
0.099991426 0.067160636 -0.10812517 0.16515386 -0.10175415 0.014994109 -0.0046596937 -0.12593934
-0.014115357 0.12255249 0.013266062 0.08371663 0.049951106 0.12458851 0.14910345 -0.14017552
-0.1370444 -0.17765349 0.023441495 0.06367168 -0.040368386 0.19045398 -0.054765582 -0.046991102
-0.08352462 -0.07058704 0.15316878 -0.1452712 -0.036583394 0.06561174 -0.12685816 -0.027302586
0.054839276 -0.029394783 0.086096555 0.046845954 0.18560275 0.12951353 0.09992627 0.120129585
-0.10099091 0.18226579 0.06673122 -0.17218472 0.21934263 -0.106989406 0.0840244 -0.0008911962
-0.12892927 -0.0402066 -0.15576184 0.094517365 -0.14993131 -0.046217516 0.03185691 -0.10549494
-0.014350418 0.09935585 -0.04975415 -0.11334613 -0.01279377 -0.046024334 -0.16898741 -0.11162258
0.14055312 -0.10137722 0.04602432 -0.06846957 -0.14010541 -0.026815452 -0.1763741 0.071877696
0.15386635 0.011351758 0.16352497 -0.17037298 -0.032855205 -0.12595432 0.21649675 -0.09297093
-0.10682352 0.15858944 0.16166818 -0.065405235 -0.025384383 0.16194125 -0.0919706 0.07215481
0.11842789 0.037389442 -0.008271884 0.10914852 -0.07681483 0.12730204 0.15894267 -0.055078868
0.020844594 0.048052005 0.017872425 -0.070970215 -0.03146806 -0.03266085 0.030295897 0.17618942
0.0339836 -0.108275704 -0.12154279 0.1509316 -0.11720031 -0.11016604 0.1306684 -0.041972525
0.012097202 0.06526286 0.03773701 -0.12575348 0.07017892 0.02066696 0.07739309 -0.11523832
-0.05549157 0.040806442 0.2236252 0.045925885 -0.08114998 0.16752581 -0.1086312 -0.020146169
-0.1532427 -0.05320113 -0.14572898 0.05243173 0.057206336 0.064340495 0.07232463 0.16130392
0.027787993 0.1633234 -0.056589462 0.14694978 0.11916044 0.14649163 0.15211874 0.004510719

dnn/logits/MatMul f4 [1, 64]
00000000: 2f01 8c3d 8be6 babe d716 0c3e b2b9 4cbe
00000010: 5973 b13d 9c51 91be 5ff6 f5bc 3221 a2be
00000020: e7dc 243e 9af6 c6bd f83c 5b3e 16ad febd
00000030: d467 ec3d 1e8b e5bd eb8c 97be 2e99 20bd
00000040: 7f72 393d 721c ca3e 9c01 a5be 1de6 b9be
00000050: db0d 633e 21a3 d63e daf3 8b3d 91ae 1d3e
00000060: 96e6 813e a0ef aabc c698 2fbe 3124 a83e
00000070: 2eb4 b9be 12cc cebd d43a 19be b573 bf3d
00000080: c33a 86be e0d5 84be 4916 803e 118f 2cbe
00000090: 6d62 be3d b063 a4be e65a fcbd 3a0b a93e
000000a0: 9d7c 1b3e ad46 b23e 0b37 8abe 9bdd d13e
000000b0: 8284 acbd 0c38 8a3e 283c 73be 76e9 00be
000000c0: 0d1c dbbb 1d4a 5dbe 3ada 6bbe aed3 f63d
000000d0: 5614 703e cadf 643d 8734 a23e 7c76 4f3e
000000e0: b7cb b3be 3b9e a5bd 4947 b63e 807e 7dbe
000000f0: 7943 2ebe c746 913e df33 57be 23f2 9c3e
0.06836163 -0.36504015 0.13680588 -0.19992712 0.08664579 -0.28382576 -0.030024705 -0.3166595
0.16099893 -0.09715004 0.21409976 -0.12435357 0.11543241 -0.11208175 -0.295997 -0.039208584
0.045275208 0.39474827 -0.3222779 -0.36308375 0.22173254 0.41921332 0.0683362 0.15398623
0.25371236 -0.020866215 -0.17148122 0.32840112 -0.3627028 -0.10097517 -0.14963847 0.09348241
-0.26216707 -0.25944424 0.25017002 -0.1685145 0.09296117 -0.32107306 -0.12322025 0.33016378
0.15184255 0.34819546 -0.2699512 0.40989384 -0.08423711 0.26995885 -0.23753417 -0.12589058
-0.0066866935 -0.21610303 -0.23032466 0.120520934 0.23445258 0.055877484 0.316807 0.20260042
-0.3511636 -0.08086821 0.3560126 -0.24755287 -0.17017926 0.2837431 -0.21015881 0.30653486
